…
      (None, None, None, 64)    36928                                                                       activation_3 (Activation)   (None, None, None, 64)    0                                                                           max_pooling2d_1 (MaxPoolin  (None, None, None, 64)    0          g2D)                                                                                                                              New_dropout_0 (Dropout)     (None, None, None, 64)    0                                                                           global_max_pooling2d (Glob  (None, 64)                0          alMaxPooling2D)                                                                                                                   New_Dense_0 (Dense)         (None, 64)                4160                                                                        New_Activation_0 (Activati  (None, 64)                0          on)                                                                                                                               New_dropout_1 (Dropout)     (None, 64)                0                                                                           New_Dense_1 (Dense)         (None, 32)                2080                                                                        New_Activation_1 (Activati  (None, 32)                0          on)                                                                                                                               New_dropout_2 (Dropout)     (None, 32)                0                                                                           New_Dense_2 (Dense)         (None, 1)                 33                                                                          New_Activation_2 (Activati  (None, 1)                 0          on)                                                                                                                              =================================================================Total params: 71841 (280.63 KB)Trainable params: 43201 (168.75 KB)Non-trainable params: 28640 (111.88 KB)_________________________________________________________________Model: "model"___
…
      (None, None, None, 64)    36928                                                                       activation_3 (Activation)   (None, None, None, 64)    0                                                                           max_pooling2d_1 (MaxPoolin  (None, None, None, 64)    0          g2D)                                                                                                                              New_dropout_0 (Dropout)     (None, None, None, 64)    0                                                                           global_max_pooling2d (Glob  (None, 64)                0          alMaxPooling2D)                                                                                                                   New_Dense_0 (Dense)         (None, 64)                4160                                                                        New_Activation_0 (Activati  (None, 64)                0          on)                                                                                                                               New_dropout_1 (Dropout)     (None, 64)                0                                                                           New_Dense_1 (Dense)         (None, 32)                2080                                                                        New_Activation_1 (Activati  (None, 32)                0          on)                                                                                                                              =================================================================Total params: 71808 (280.50 KB)Trainable params: 43168 (168.62 KB)Non-trainable params: 28640 (111.88 KB)_________________________________________________________________['test_data_blk_01
…
